use dataset class: rwf2000_dataset
using sampling strategy:  uniform_sampling  target frames:  64
Found 9600 files belonging to 2 classes.
     Fight :  0
  NonFight :  1
use dataset class: rwf2000_dataset
using sampling strategy:  uniform_sampling  target frames:  64
Found 2400 files belonging to 2 classes.
     Fight :  0
  NonFight :  1
use dataset class: rwf2000_dataset
using sampling strategy:  uniform_sampling  target frames:  64
Found 2400 files belonging to 2 classes.
     Fight :  0
  NonFight :  1
DataParallel(
  (module): RWF_RGB(
    (relu): ReLU(inplace=True)
    (conv3d11): Conv3d(3, 16, kernel_size=(1, 3, 3), stride=(1, 1, 1), padding=(0, 1, 1))
    (conv3d12): Conv3d(16, 16, kernel_size=(3, 1, 1), stride=(1, 1, 1), padding=(1, 0, 0))
    (max_pooling1): MaxPool3d(kernel_size=(1, 2, 2), stride=(1, 2, 2), padding=0, dilation=1, ceil_mode=False)
    (conv3d21): Conv3d(16, 16, kernel_size=(1, 3, 3), stride=(1, 1, 1), padding=(0, 1, 1))
    (conv3d22): Conv3d(16, 16, kernel_size=(3, 1, 1), stride=(1, 1, 1), padding=(1, 0, 0))
    (max_pooling2): MaxPool3d(kernel_size=(1, 2, 2), stride=(1, 2, 2), padding=0, dilation=1, ceil_mode=False)
    (conv3d31): Conv3d(16, 32, kernel_size=(1, 3, 3), stride=(1, 1, 1), padding=(0, 1, 1))
    (conv3d32): Conv3d(32, 32, kernel_size=(3, 1, 1), stride=(1, 1, 1), padding=(1, 0, 0))
    (max_pooling3): MaxPool3d(kernel_size=(1, 2, 2), stride=(1, 2, 2), padding=0, dilation=1, ceil_mode=False)
    (conv3d41): Conv3d(32, 32, kernel_size=(1, 3, 3), stride=(1, 1, 1), padding=(0, 1, 1))
    (conv3d42): Conv3d(32, 32, kernel_size=(3, 1, 1), stride=(1, 1, 1), padding=(1, 0, 0))
    (max_pooling4): MaxPool3d(kernel_size=(1, 2, 2), stride=(1, 2, 2), padding=0, dilation=1, ceil_mode=False)
    (max_pooling5): MaxPool3d(kernel_size=(8, 1, 1), stride=(8, 1, 1), padding=0, dilation=1, ceil_mode=False)
    (conv3d61): Conv3d(32, 64, kernel_size=(1, 3, 3), stride=(1, 1, 1), padding=(0, 1, 1))
    (conv3d62): Conv3d(64, 64, kernel_size=(3, 1, 1), stride=(1, 1, 1), padding=(1, 0, 0))
    (max_pooling6): MaxPool3d(kernel_size=(2, 2, 2), stride=(2, 2, 2), padding=0, dilation=1, ceil_mode=False)
    (conv3d71): Conv3d(64, 64, kernel_size=(1, 3, 3), stride=(1, 1, 1), padding=(0, 1, 1))
    (conv3d72): Conv3d(64, 64, kernel_size=(3, 1, 1), stride=(1, 1, 1), padding=(1, 0, 0))
    (max_pooling7): MaxPool3d(kernel_size=(2, 2, 2), stride=(2, 2, 2), padding=0, dilation=1, ceil_mode=False)
    (conv3d81): Conv3d(64, 128, kernel_size=(1, 3, 3), stride=(1, 1, 1), padding=(0, 1, 1))
    (conv3d82): Conv3d(128, 128, kernel_size=(3, 1, 1), stride=(1, 1, 1), padding=(1, 0, 0))
    (max_pooling8): MaxPool3d(kernel_size=(2, 3, 3), stride=(2, 3, 3), padding=0, dilation=1, ceil_mode=False)
    (L1): Linear(in_features=128, out_features=128, bias=True)
    (dropout): Dropout(p=0.2, inplace=False)
    (L2): Linear(in_features=128, out_features=32, bias=True)
    (Classify): Linear(in_features=32, out_features=2, bias=True)
  )
)
Model size: 0.24840M
----------
epoch 1
Train: [1/30] iter: 20/1200. lr: 0.0001 . Loss: 17.817210, Acc: 0.425000 time:10.2 s
Train: [1/30] iter: 40/1200. lr: 0.0001 . Loss: 9.273868, Acc: 0.471875 time:6.9 s
Train: [1/30] iter: 60/1200. lr: 0.0001 . Loss: 6.424643, Acc: 0.464583 time:6.9 s
Train: [1/30] iter: 80/1200. lr: 0.0001 . Loss: 4.994644, Acc: 0.470313 time:6.7 s
…
